Class weights: [… Classes in dataset: [ 0  1  2  3  4  5  6  7  8  9 10 11 12 13 14 15 16 17 18 19 20 21 22 23
 24 25 26 27]
Missing classes in training set: {28}
==========================================================================================
Layer (type:depth-idx)                   Output Shape              Param #
==========================================================================================
MotionCNN                                [1, 29]                   --
├─Conv2d: 1-1                            [1, 32, 64, 1000]         896
├─Conv2d: 1-2                            [1, 64, 64, 1000]         18,496
├─AdaptiveAvgPool2d: 1-3                 [1, 64, 16, 16]           --
├─Linear: 1-4                            [1, 128]                  2,097,280
├─Linear: 1-5                            [1, 29]                   3,741
==========================================================================================
Total params: 2,120,413
Trainable params: 2,120,413
Non-trainable params: 0
Total mult-adds (Units.GIGABYTES): 1.24
==========================================================================================
Input size (MB): 0.77
Forward/backward pass size (MB): 49.15
Params size (MB): 8.48
Estimated Total Size (MB): 58.40
…
