…
  warnings.warn(f"enable_nested_tensor is True, but self.use_nested_tensor is False because {why_not_sparsity_fast_path}")
Class weights: [… Classes in dataset: [ 0  1  2  3  4  5  6  7  8  9 10 11 12 13 14 15 16 17 18 19 20 21 22 23
 24 25 26 27]
Missing classes in training set: {28}
===============================================================================================
Layer (type:depth-idx)                        Output Shape              Param #
===============================================================================================
MotionTransformer                             [1, 29]                   131,072
├─Linear: 1-1                                 [64, 1000, 256]           1,024
├─TransformerEncoder: 1-2                     [1, 64, 256]              --
│    └─ModuleList: 2-1                        --                        --
│    │    └─TransformerEncoderLayer: 3-1      [1, 64, 256]              789,760
│    │    └─TransformerEncoderLayer: 3-2      [1, 64, 256]              789,760
│    │    └─TransformerEncoderLayer: 3-3      [1, 64, 256]              789,760
│    │    └─TransformerEncoderLayer: 3-4      [1, 64, 256]              789,760
├─Sequential: 1-3                             [1, 29]                   --
│    └─LayerNorm: 2-2                         [1, 256]                  512
│    └─Dropout: 2-3                           [1, 256]                  --
│    └─Linear: 2-4                            [1, 256]                  65,792
│    └─ReLU: 2-5                              [1, 256]                  --
│    └─Dropout: 2-6                           [1, 256]                  --
│    └─Linear: 2-7                            [1, 29]                   7,453
===============================================================================================
Total params: 3,364,893
Trainable params: 3,364,893
Non-trainable params: 0
Total mult-adds (Units.MEGABYTES): 0.14
===============================================================================================
Input size (MB): 0.77
Forward/backward pass size (MB): 131.08
Params size (MB): 0.30
Estimated Total Size (MB): 132.14
…
