…
  Diff  3.5 → 94 samples | weight=1.0164
  Diff  3.6 → 154 samples | weight=0.6204
  Diff  3.7 → 66 samples | weight=1.4477
  Diff  3.8 → 50 samples | weight=1.9109
  Diff  3.9 → 21 samples | weight=4.5498
  Diff  4.1 → 7 samples | weight=13.6494
==========================================================================================
Layer (type:depth-idx)                   Output Shape              Param #
==========================================================================================
DifficultyRegressor                      [32]                      --
├─Conv1d: 1-1                            [32, 256, 152]            2,560,256
├─Sequential: 1-2                        [32, 256, 152]            --
│    └─ResidualBlock: 2-1                [32, 256, 152]            --
│    │    └─Conv1d: 3-1                  [32, 256, 152]            196,864
│    │    └─BatchNorm1d: 3-2             [32, 256, 152]            512
│    │    └─Conv1d: 3-3                  [32, 256, 152]            196,864
│    │    └─BatchNorm1d: 3-4             [32, 256, 152]            512
│    └─ResidualBlock: 2-2                [32, 256, 152]            --
│    │    └─Conv1d: 3-5                  [32, 256, 152]            196,864
│    │    └─BatchNorm1d: 3-6             [32, 256, 152]            512
│    │    └─Conv1d: 3-7                  [32, 256, 152]            196,864
│    │    └─BatchNorm1d: 3-8             [32, 256, 152]            512
│    └─ResidualBlock: 2-3                [32, 256, 152]            --
│    │    └─Conv1d: 3-9                  [32, 256, 152]            196,864
│    │    └─BatchNorm1d: 3-10            [32, 256, 152]            512
│    │    └─Conv1d: 3-11                 [32, 256, 152]            196,864
│    │    └─BatchNorm1d: 3-12            [32, 256, 152]            512
│    └─ResidualBlock: 2-4                [32, 256, 152]            --
│    │    └─Conv1d: 3-13                 [32, 256, 152]            196,864
│    │    └─BatchNorm1d: 3-14            [32, 256, 152]            512
│    │    └─Conv1d: 3-15                 [32, 256, 152]            196,864
│    │    └─BatchNorm1d: 3-16            [32, 256, 152]            512
├─AttnPool1D: 1-3                        [32, 256]                 256
├─Dropout: 1-4                           [32, 256]                 --
├─Sequential: 1-5                        [32, 1]                   --
│    └─Linear: 2-5                       [32, 128]                 32,896
│    └─ReLU: 2-6                         [32, 128]                 --
│    └─Linear: 2-7                       [32, 1]                   129
==========================================================================================
Total params: 4,172,545
Trainable params: 4,172,545
Non-trainable params: 0
Total mult-adds (Units.GIGABYTES): 20.11
==========================================================================================
Input size (MB): 38.91
Forward/backward pass size (MB): 169.44
Params size (MB): 16.69
Estimated Total Size (MB): 225.05
…
  Diff  3.5 → 94 samples | weight=1.0164
  Diff  3.6 → 154 samples | weight=0.6204
  Diff  3.7 → 66 samples | weight=1.4477
  Diff  3.8 → 50 samples | weight=1.9109
  Diff  3.9 → 21 samples | weight=4.5498
  Diff  4.1 → 7 samples | weight=13.6494
==========================================================================================
Layer (type:depth-idx)                   Output Shape              Param #
==========================================================================================
DifficultyRegressor                      [32]                      --
├─Conv1d: 1-1                            [32, 256, 136]            2,560,256
├─Sequential: 1-2                        [32, 256, 136]            --
│    └─ResidualBlock: 2-1                [32, 256, 136]            --
│    │    └─Conv1d: 3-1                  [32, 256, 136]            196,864
│    │    └─BatchNorm1d: 3-2             [32, 256, 136]            512
│    │    └─Conv1d: 3-3                  [32, 256, 136]            196,864
│    │    └─BatchNorm1d: 3-4             [32, 256, 136]            512
│    └─ResidualBlock: 2-2                [32, 256, 136]            --
│    │    └─Conv1d: 3-5                  [32, 256, 136]            196,864
│    │    └─BatchNorm1d: 3-6             [32, 256, 136]            512
│    │    └─Conv1d: 3-7                  [32, 256, 136]            196,864
│    │    └─BatchNorm1d: 3-8             [32, 256, 136]            512
│    └─ResidualBlock: 2-3                [32, 256, 136]            --
│    │    └─Conv1d: 3-9                  [32, 256, 136]            196,864
│    │    └─BatchNorm1d: 3-10            [32, 256, 136]            512
│    │    └─Conv1d: 3-11                 [32, 256, 136]            196,864
│    │    └─BatchNorm1d: 3-12            [32, 256, 136]            512
│    └─ResidualBlock: 2-4                [32, 256, 136]            --
│    │    └─Conv1d: 3-13                 [32, 256, 136]            196,864
│    │    └─BatchNorm1d: 3-14            [32, 256, 136]            512
│    │    └─Conv1d: 3-15                 [32, 256, 136]            196,864
│    │    └─BatchNorm1d: 3-16            [32, 256, 136]            512
├─AttnPool1D: 1-3                        [32, 256]                 256
├─Dropout: 1-4                           [32, 256]                 --
├─Sequential: 1-5                        [32, 1]                   --
│    └─Linear: 2-5                       [32, 128]                 32,896
│    └─ReLU: 2-6                         [32, 128]                 --
│    └─Linear: 2-7                       [32, 1]                   129
==========================================================================================
Total params: 4,172,545
Trainable params: 4,172,545
Non-trainable params: 0
Total mult-adds (Units.GIGABYTES): 18.00
==========================================================================================
Input size (MB): 34.82
Forward/backward pass size (MB): 151.62
Params size (MB): 16.69
Estimated Total Size (MB): 203.12
…
